model/keypoint_classifier/keypoint_classifier.tflite (tflite, 6632 bytes, 6 tensors)

sequential/dense/BiasAdd/ReadVariableOp f4 [20]
0	0xbf2c0eb9	-0.67209965
1	0xbf0008e0	-0.5001354
2	0xbf280721	-0.6563588
3	0xbf4add30	-0.79243755
4	0xbf0dd57c	-0.55403876
5	0xbef096ae	-0.4698996
6	0xbefee549	-0.49784306
7	0xbf6affbb	-0.91796464
8	0xbf611c4e	-0.87933815
9	0xbf1ed26e	-0.6203984
10	0xbef268df	-0.47345635
11	0xbf4633fa	-0.7742306
12	0xbedd4c59	-0.4322231
13	0xbe0332cb	-0.12812345
14	0x3f4f29c3	0.809231
15	0x3f2fc5f0	0.68661404
16	0xbf195f80	-0.59911346
17	0xbed1041d	-0.4082345
18	0xbec7d1d4	-0.39027274
19	0xbec6866f	-0.3877444

sequential/dense_2/BiasAdd/ReadVariableOp f4 [6]
0	0xbefa0bee	-0.48837227
1	0x3ebf66a9	0.3738301
2	0x3eb5bab6	0.35494012
3	0x3e10c945	0.14139278
4	0x3e21bbf2	0.15794352
5	0xbeb1e80d	-0.34747353

sequential/dense_1/BiasAdd/ReadVariableOp f4 [10]
0	0x3edd34e8	0.43204427
1	0x3eb6ebfc	0.35726917
2	0x3ececb0f	0.40389296
3	0x3e49c635	0.19704516
4	0x3f23522b	0.63797253
5	0x3e6b2030	0.22961497
6	0x3e6bd765	0.23031385
7	0x3ef42210	0.47682238
8	0x3f0d1e59	0.5512443
9	0x3e472a96	0.19449839

sequential/dense/MatMul f4 [20, 42]
0	0x3e62d55c	0.22151703
1	0xbcb78740	-0.02240336
2	0x3d4da69e	0.050207727
3	0x3f36c360	0.7139187
4	0xbda05713	-0.07829108
5	0x3ec88f1c	0.39171684
6	0x3d94caea	0.07265265
7	0x3e58c658	0.21169412
8	0x3e2434f8	0.16035831
9	0x3e532758	0.20620477
10	0xbdb9a91b	-0.090654574
11	0x3cfa08a6	0.030521702
12	0x3ae88a60	0.0017741434
13	0x3d4b0a16	0.049570166
14	0x3db2f067	0.08737259
15	0x3dbb01ae	0.0913118
16	0x3dfa1589	0.12211139
17	0x3d8560f0	0.0651263
18	0x3d38b69c	0.045096025
19	0xbd1ef8ad	-0.038811374
20	0x3da17321	0.07883287
21	0x3dd397d5	0.10331694
22	0xbcb49c7f	-0.02204728
23	0xbde8f8a3	-0.11375549
24	0xbed08ae9	-0.4073098
25	0xbe6c7b71	-0.23093964
26	0x3e38d47c	0.18049806
27	0xbd924e33	-0.071438216
28	0xbd70c59e	-0.058782212
29	0x3d068203	0.032838833
30	0xbeb2951e	-0.34879392
31	0xbe2eb240	-0.17060184
32	0xbf1f1514	-0.6214154
33	0xbf32ed32	-0.6989318
34	0x3d8b1f42	0.06793071
35	0xbe1f9288	-0.15583241
36	0xbb135c83	-0.0022485561
37	0xbb9d1c79	-0.004794654
38	0xbea8f5c8	-0.33000016
39	0xbec0b632	-0.37639004
40	0xbe6bbd8f	-0.2302153
41	0xbf6b386f	-0.91882986
42	0xbe5381e0	-0.20655012
43	0xbd3ef700	-0.046622276
44	0xbe3e36ad	-0.18575545
45	0x3e7597e7	0.23983727
46	0xbde1b1db	-0.11020251
47	0x3e9ec824	0.3101207
48	0x3e18820b	0.14893357
49	0x3de800e0	0.11328292
50	0x3e9e76cd	0.30950013
51	0xbd8f3225	-0.06991986
52	0x3d5dd73b	0.054160338
53	0xbed1131c	-0.40834892
54	0xbbfbfb12	-0.007689842
55	0xbdeb3dd0	-0.11486399
56	0x3d19831f	0.037478562
57	0xbcbcf04a	-0.023063798
58	0x3d9b7055	0.07589785
59	0x3d58a6ca	0.052893437
60	0x3ecb25d4	0.39677298
61	0xbe80ca57	-0.25154373
62	0xbd488dd5	-0.048963387
63	0x3d9efe43	0.0776334
64	0xbe78a108	-0.24280179
65	0x3dbd2537	0.09235614
66	0xbe6a0071	-0.22851731
67	0x3cf17296	0.029473584
68	0x3f1a8a08	0.6036687
69	0xbe8a4e6a	-0.2701295
70	0x3e4bc366	0.19898757
71	0x3dfe157b	0.12406441
72	0xbe4d8250	-0.20069242
73	0x3d6c7e3a	0.057737567
74	0xbe4b0f8b	-0.19830148
75	0xbbc06dc9	-0.0058724624
76	0x3f8344bf	1.0255355
77	0xbebb105c	-0.3653592
78	0x3f016b8e	0.5055474
79	0x3de4eef0	0.11178386
80	0xbe280125	-0.16406687
81	0x3e50d613	0.20394163
82	0xbe99fb90	-0.3007474
83	0x3e3788a1	0.17923214
84	0xbe922f47	-0.28551695
85	0xbe018fd7	-0.12652527
86	0x3f64e6a2	0.8941442
87	0x3ec4c893	0.38434276
88	0x3efab199	0.4896362
89	0x3c92ca3f	0.017918704
90	0x3f01cb0a	0.5070044
91	0x3ea01fc5	0.31274238
92	0x3f598101	0.8496247
93	0x3eb07157	0.3446147
94	0xbb8b5d30	-0.004253052
95	0xbdc3d43f	-0.09561967
96	0xbce792d8	-0.028268263
97	0x3aa77d02	0.0012778344
98	0xbe2ba112	-0.16760662
99	0xbd5517f1	-0.052024785
100	0xbe038f57	-0.12847649
101	0xbdd94fa1	-0.10610891
102	0x3e517a1a	0.20456734
103	0xbd1cab99	-0.038249586
104	0xbda884e9	-0.082284756
105	0x3d439afb	0.047755223
106	0x3d04eaca	0.032450475
107	0x3cd998d6	0.026562136
108	0x3e01de85	0.1268254
109	0x3cd2f1b1	0.025750013
110	0x3e1c8bdb	0.15287726
111	0x3db5f3d4	0.08884397
112	0x3cfbc5a5	0.030733893
113	0x3d97abda	0.07405825
114	0xbe8b6998	-0.27229
115	0xbd85bf8c	-0.06530675
116	0xbe7216e9	-0.23641552
117	0xbe2c8896	-0.16848978
118	0x3e968111	0.29395345
119	0x3d50a9c6	0.05094316
120	0xbe723e03	-0.23656468
121	0x3c52465d	0.012834159
122	0xbf72d4c8	-0.9485593
123	0xbe12ad1f	-0.14323853
124	0xbf7f8de7	-0.998259
125	0xbf0365ff	-0.5132751
126	0x3d417dc0	0.047239065
127	0xbe5e7af5	-0.21726592
128	0xbeec4bef	-0.46151683
129	0xbda961c3	-0.082706
130	0xbe100d26	-0.14067516
131	0x3c53d13c	0.012928303
132	0xbe4620e2	-0.19348481
133	0xbda344df	-0.079721205
134	0xbec62644	-0.3870107
135	0xbdeee535	-0.116648115
136	0xbbb62c27	-0.0055594626
137	0x3d31ba67	0.043390658
138	0x3bd38498	0.0064550154
139	0x3d7d8103	0.061890613
140	0x3db6221c	0.088932246
141	0x3e2b1d17	0.16710316
142	0x3e22c492	0.15895298
143	0x3e257041	0.16156103
144	0x3d6dc6c3	0.058050882
145	0x3cb01025	0.021492073
146	0x3ca0fa44	0.019650586
147	0x3b1952fc	0.002339541
148	0xbe05a888	-0.13052571
149	0xbe3ef839	-0.18649377
150	0xbe793273	-0.24335651
151	0xbbea5752	-0.0071515227
152	0x3c0a69fd	0.008448121
153	0x3d5f359f	0.054494496
154	0x3e07cc70	0.1326158
155	0xbd9c489d	-0.076310374
156	0xbd51f0f5	-0.051255185
157	0xbeb97590	-0.36222506
158	0xbf2f662e	-0.6851529
159	0xbeda7ef6	-0.42674989
160	0x3d62a6db	0.055334907
161	0x3d3bf47c	0.045887455
162	0x3da41444	0.08011678
163	0xbe185de3	-0.14879565
164	0x3e0f6a18	0.14005315
165	0xbea61e0c	-0.324448
166	0xbe9b78ab	-0.303655
167	0xbecd2dfd	-0.4007415
168	0x3e7d74e0	0.24751616
169	0xbe7a86b6	-0.2446545
170	0x3d8411a6	0.06448679
171	0x3eddea51	0.43342832
172	0x3e5d7614	0.21627074
173	0x3e452e71	0.19255997
174	0x3e5b5934	0.21420747
175	0x3dd5ecbe	0.104455456
176	0x3dc71e78	0.09722608
177	0x3dae228b	0.08502682
178	0x3d7b3fdc	0.061340198
179	0x3c39cd02	0.011340382
180	0xba2ec71e	-0.0006667244
181	0x3d000cb3	0.03126211
182	0xbd974098	-0.07385367
183	0x3d8c608d	0.06854353
184	0xbdc6c448	-0.097054064
185	0x3d54c910	0.05194956
186	0x3df1dd2a	0.11809762
187	0xbbce1bd4	-0.0062899385
188	0x3c9fa025	0.019485543
189	0x3cf0999d	0.029370124
190	0xbd5d7b09	-0.054072414
191	0xbd3c63da	-0.045993663
192	0x3ce92f46	0.028464925
193	0xbfc19d63	-1.5126156
194	0x3d97f6f1	0.07420147
195	0xba9e802d	-0.0012092643
196	0x3bfe6513	0.007763514
197	0x3daf25a1	0.08552099
198	0xbd864b9d	-0.06557391
199	0x3c017859	0.007902228
200	0xbd77ff6a	-0.060546316
201	0xbea2100e	-0.31652874
202	0x3e7c65c4	0.24648196
203	0xbd1b7571	-0.037953798
204	0x3d8afde8	0.0678671
205	0x3d30c73f	0.043158766
206	0xbd1fea41	-0.03904176
207	0x3dcc2cdc	0.09969494
208	0xbc7c4ca0	-0.015399128
209	0x3dd7c6f4	0.10535994
210	0xbe97a471	-0.29617646
211	0xbd62f430	-0.055408657
212	0x3de2643d	0.11054275
213	0x3da030bc	0.07821795
214	0x3dd092ca	0.10184248
215	0xbdeb9dc8	-0.11504704
216	0x3e334b71	0.17509247
217	0xbed6e6ab	-0.4197286
218	0x3e85f8ce	0.26166385
219	0xbf22e0e3	-0.636244
220	0xbdc419fa	-0.09575267
221	0x3c9f5c42	0.019453172
222	0xbd5293a3	-0.05141033
223	0x3c8f223a	0.017472375
224	0xbcbfb797	-0.023402972
225	0x3c2278b6	0.009916475
226	0xbd1a38ea	-0.037651934
227	0x3cbd45b8	0.023104534
228	0xbe176c4f	-0.1478741
229	0xbcaa5130	-0.020790666
230	0x3c65e20a	0.014030943
231	0xbdf95b60	-0.121756315
232	0xbdc79448	-0.09745079
233	0x3c81e127	0.015854431
234	0xbe58ef8e	-0.21185133
235	0x3e64cf77	0.22344767
236	0xbd34704d	-0.04405241
237	0xbc681cde	-0.014167039
238	0x3dda0354	0.10645166
239	0xbe06fddc	-0.13182777
240	0xbdf06d14	-0.11739555
241	0x3e81eec2	0.2537747
242	0xbed6d743	-0.41961107
243	0x3f287774	0.6580727
244	0x3e53bbfb	0.20677178
245	0xbe65b1b6	-0.22431073
246	0x3e380862	0.17971948
247	0xbd35936c	-0.044330046
248	0xbc8b5558	-0.017008469
249	0x3e9f2a48	0.31086946
250	0xbe70bb87	-0.23509036
251	0x3f740d31	0.9533263
252	0xbe56308a	-0.20916954
253	0xbe23d170	-0.15997863
254	0x3e02fbdd	0.1279139
255	0xbf0967cd	-0.5367401

sequential/dense_1/MatMul f4 [10, 20]
0	0x3e906adc	0.28206527
1	0x3e717398	0.23579252
2	0xbe05316c	-0.13007134
3	0x3e94dacb	0.29073176
4	0x3fb6aba9	1.4271137
5	0x3e76e1f0	0.24109626
6	0xbe36a5d0	-0.1783669
7	0xbea0095d	-0.31257144
8	0xbf02a9a7	-0.5104012
9	0xbe662ecc	-0.22478789
10	0xbe0b7c60	-0.13621664
11	0xbd1c96f6	-0.038229905
12	0x3e95fb8a	0.29293472
13	0xbd28ece0	-0.041241527
14	0xbf22e1fd	-0.6362608
15	0x3e15f54f	0.14644359
16	0xbe3fd815	-0.18734773
17	0x3f33cdcf	0.70235914
18	0xbe4da0c4	-0.20080858
19	0xbd27c3d5	-0.040958244
20	0xbf5729d9	-0.8404823
21	0x3d8edbb6	0.069755
22	0x3da80f8d	0.08206091
23	0xbe258716	-0.16164812
24	0xbe9fc442	-0.3120442
25	0x3f04f4f0	0.51936245
26	0x3acd4a7d	0.0015662458
27	0xbe862f16	-0.262078
28	0xbeb4dcd1	-0.3532472
29	0xbdd458b7	-0.103684835
30	0xbdee08e9	-0.11622793
31	0xbea56a6d	-0.3230776
32	0x3e7260a8	0.23669684
33	0x3e806bb8	0.25082183
34	0x3f6738c8	0.90321016
35	0x3f08ad93	0.53389853
36	0x3efca13b	0.4934176
37	0x3c918cbe	0.017767306
38	0x3e199a14	0.15000182
39	0x3f1b9c47	0.60785335
40	0xbd5b5669	-0.053549204
41	0x3f7338be	0.95008457
42	0x3ee73180	0.45154953
43	0x3c38b89c	0.011274483
44	0xbca208fe	-0.019779678
45	0xbe2a3550	-0.166219
46	0x3f6023d2	0.8755466
47	0x3f39fd65	0.72652274
48	0x3f5200a8	0.8203225
49	0x3f8e9fb0	1.1142483
50	0x3eb2e1f3	0.3493801
51	0x3f11f14a	0.570088
52	0x3f272898	0.65296316
53	0x3f20ce4f	0.628148
54	0xbc0a1650	-0.008428171
55	0x3ea8dc52	0.3298059
56	0xbde44ba4	-0.1114724
57	0x3c864f66	0.016395282
58	0x3e94ee83	0.2908822
59	0x3db3ac45	0.08773092
60	0xbc2d0ccb	-0.010562132
61	0x3ef4d5ff	0.47819516
62	0x3f15c0b3	0.5849716
63	0xbd5d17c8	-0.053977758
64	0x3ef2ba6c	0.47407854
65	0x3fc28940	1.5198135
66	0x3f33958a	0.70150054
67	0x3f9c6d23	1.2220806
68	0x3f34e3e9	0.70660263
69	0x3d1b92b3	0.0379817
70	0x3f274d5b	0.6535241
71	0x3f66e798	0.90197134
72	0x3f18ca3a	0.59683573
73	0x3f3ec57e	0.745201
74	0x3f58a1e9	0.84622055
75	0x3e58591c	0.21127743
76	0x3f0aa06c	0.54151034
77	0x3dc13406	0.09433751
78	0xbcec056b	-0.028811177
79	0x3dfb6b44	0.12276319
80	0xbf1f274d	-0.62169343
81	0x3e853a2d	0.26020947
82	0xbdc91f98	-0.09820479
83	0xbf2ec6b6	-0.6827196
84	0xbf5ee233	-0.870639
85	0xbf0c7906	-0.5487217
86	0x3eae0211	0.33985952
87	0xbe363d40	-0.17796803
88	0xbea51a9c	-0.32246864
89	0x3e6fb8c7	0.2341033
90	0x3c95cd78	0.018286452
91	0x3d7502e3	0.059817206
92	0xbe25b65e	-0.16182849
93	0x3e79acbc	0.24382299
94	0xbd864a29	-0.06557114
95	0x3d4f111c	0.050553426
96	0xbee1ad75	-0.4407765
97	0xbf95ac48	-1.1693201
98	0x3e9d2938	0.3069551
99	0xbe749048	-0.23883164
100	0x3f3efb25	0.74601966
101	0xbd94b09c	-0.07260248
102	0x3ee051b8	0.43812346
103	0x3f657086	0.8962482
104	0x3ef792d4	0.48354208
105	0x3ed17143	0.40906724
106	0xbe9108fa	-0.2832716
107	0xbe8b5a03	-0.2721711
108	0xbe2a838f	-0.16651748
109	0xbd79d1f7	-0.060991254
110	0xbe018124	-0.1264692
111	0xbf0779a4	-0.52919984
112	0x3ecf6d0d	0.40512887
113	0xbda1cb1d	-0.07900069
114	0xbf00ff51	-0.5038958
115	0x3e8e8e2b	0.2784284
116	0x3e843096	0.25818318
117	0x3f59bce9	0.8505388
118	0x3d8ee209	0.069767065
119	0x3f303a7f	0.6883926
120	0x3eb2df2e	0.34935898
121	0x3ec9ccdd	0.3941411
122	0x3edae4d4	0.42752707
123	0x3ee9e8cb	0.4568542
124	0xbe0c5471	-0.13704087
125	0xbe243e97	-0.16039501
126	0x3c7992b7	0.015232733
127	0x3ee5dac0	0.44893456
128	0x3f01c353	0.50688666
129	0x3e556939	0.2084092
130	0x3f2f876c	0.6856601
131	0x3f129945	0.5726512
132	0xbe6990be	-0.22809121
133	0xbd99df60	-0.075133085
134	0x3e1e05c6	0.1543189
135	0x3e0f3590	0.13985276
136	0x3ee16212	0.44020134
137	0xbde0ce78	-0.10976881
138	0x3efb1b5e	0.49044317
139	0x3e8381a5	0.25684848
140	0xbf712931	-0.9420348
141	0x3f0efb07	0.5585179
142	0xbe269f4c	-0.16271704
143	0xbf9dc928	-1.2327013
144	0xbfa3d102	-1.2798159
145	0xbef04b2b	-0.4693235
146	0xbdae015f	-0.08496355
147	0xbee8366a	-0.45354015
148	0xbf169c0c	-0.5883186
149	0x3e907387	0.2821314
150	0x3e6cde20	0.23131609
151	0xbe13c371	-0.14430024
152	0xbd8fa91f	-0.07014679
153	0x3e713430	0.23555064
154	0x3e59a07f	0.2125263
155	0x3beeb602	0.0072848806
156	0xbecb5706	-0.3971483
157	0xbf7d3746	-0.98912466
158	0x3ee62325	0.44948688
159	0xbed5dde2	-0.41770846
160	0x3e0a1e96	0.1348823
161	0x3ddadd96	0.106867954
162	0xbde7f389	-0.113257475
163	0xbe9bf30a	-0.30458862
164	0x3f2fb290	0.6863184
165	0xbf0f900e	-0.56079185
166	0xbeacad1f	-0.3372583
167	0xbf489ed5	-0.7836736
168	0xbf5e9a0d	-0.8695381
169	0xbe21795c	-0.15768951
170	0xbcd40db9	-0.02588545
171	0xbeb6a275	-0.3567082
172	0xbe776e09	-0.24163069
173	0x3e95fb26	0.29293174
174	0xbeab997c	-0.33515537
175	0x3da09473	0.078408144
176	0xbf358ee6	-0.7092117
177	0xbf01c051	-0.50684077
178	0x3f0885c8	0.53329134
179	0xbeac401f	-0.3364267
180	0x3e42091d	0.18948789
181	0xbe087bfc	-0.13328546
182	0x3f40d7ad	0.75329095
183	0x3c85bb6e	0.016324725
184	0xbd8a4c96	-0.06752889
185	0x3f283532	0.6570617
186	0xbddaab6e	-0.10677229
187	0xbf0868a6	-0.5328468
188	0xbecee953	-0.40412387
189	0xbf07e62e	-0.530856
190	0x3f2c2c84	0.67255425
191	0xbf08c3e9	-0.53423935
192	0x3f0b3e0e	0.5439156
193	0x3ed443f3	0.4145809
194	0xbf1d5730	-0.6146116
195	0xbeb680cd	-0.35645142
196	0xbf0afb86	-0.54290044
197	0xbd5cd9f1	-0.053918783
198	0x3f3383ad	0.70122796
199	0x3f270e7d	0.6525648

sequential/dense_2/MatMul f4 [6, 10]
0	0xbc0db148	-0.008648224
1	0x3f66cf17	0.90159744
2	0xbe8c2318	-0.27370524
3	0x3eb9d0de	0.36292166
4	0xbf847cc6	-1.0350578
5	0x3f1c2a25	0.6100181
6	0xbf29837d	-0.6621626
7	0xbeb6bce0	-0.35690975
8	0xbe48ea17	-0.19620548
9	0x3f83250d	1.0245682
10	0xbebb4438	-0.36575484
11	0xbeecd71c	-0.46257865
12	0x3f7cc0d4	0.9873173
13	0x3f3640c1	0.71192557
14	0xbf3496fd	-0.7054289
15	0xbe7bc89a	-0.24588242
16	0x3edc52d3	0.4303194
17	0xbf26fdf6	-0.65231264
18	0xbf781254	-0.96902966
19	0xbf3b63c0	-0.7319908
20	0xbee63d1d	-0.449685
21	0x3f0783f7	0.5293574
22	0x3ed61ad6	0.4181735
23	0xbe5d182d	-0.21591254
24	0x3fb32521	1.3995706
25	0xbf6de8bb	-0.92933244
26	0xbf0d2075	-0.5512765
27	0x3f422235	0.75833446
28	0xbe94ea2c	-0.2908491
29	0xbed0f3cf	-0.4081101
30	0x3dad06f3	0.08448591
31	0xbee8921f	-0.45423982
32	0xbfb8b343	-1.4429706
33	0xbfa5d50f	-1.2955645
34	0xbf25f97b	-0.648338
35	0x3f84e148	1.038125
36	0xbefc8d5f	-0.49326608
37	0xbee90a34	-0.45515597
38	0x3e4eacaa	0.20183054
39	0xbf778aab	-0.96695966
40	0xbd599651	-0.05312187
41	0xbf54452e	-0.8291806
42	0xbf112b39	-0.5670658
43	0xbe21cb70	-0.15800261
44	0x3e83e323	0.2575923
45	0xbf479205	-0.77957183
46	0xbfadbcaf	-1.3573207
47	0xbeb17a3c	-0.3466357
48	0x3fb87771	1.4411451
49	0xbece15cc	-0.40251005
50	0xbfdf87e0	-1.7463341
51	0x3e2d3c1e	0.16917464
52	0xbbe928f3	-0.007115477
53	0xbf0ac07d	-0.54199964
54	0xbee21e15	-0.44163576
55	0xbad3e7bd	-0.0016167086
56	0x3f589cb9	0.8461414
57	0xbec1cef7	-0.37853214
58	0x3dd9b28d	0.10629759
59	0x3f65b4e9	0.8972917
